…
batch_normalization_6 (BatchNor (None, 112, 112, 128 512         conv2d_5[0][0]                   
__________________________________________________________________________________________________
activation (Activation)         (None, 112, 112, 128 0           batch_normalization_1[0][0]      
__________________________________________________________________________________________________
activation_5 (Activation)       (None, 112, 112, 128 0           batch_normalization_6[0][0]      
__________________________________________________________________________________________________
conv2d_1 (Conv2D)               (None, 56, 56, 64)   204864      activation[0][0]                 
__________________________________________________________________________________________________
conv2d_6 (Conv2D)               (None, 56, 56, 64)   204864      activation_5[0][0]               
__________________________________________________________________________________________________
batch_normalization_2 (BatchNor (None, 56, 56, 64)   256         conv2d_1[0][0]                   
__________________________________________________________________________________________________
batch_normalization_7 (BatchNor (None, 56, 56, 64)   256         conv2d_6[0][0]                   
__________________________________________________________________________________________________
activation_1 (Activation)       (None, 56, 56, 64)   0           batch_normalization_2[0][0]      
__________________________________________________________________________________________________
activation_6 (Activation)       (None, 56, 56, 64)   0           batch_normalization_7[0][0]      
__________________________________________________________________________________________________
conv2d_2 (Conv2D)               (None, 28, 28, 64)   102464      activation_1[0][0]               
__________________________________________________________________________________________________
conv2d_7 (Conv2D)               (None, 28, 28, 64)   102464      activation_6[0][0]               
__________________________________________________________________________________________________
batch_normalization_3 (BatchNor (None, 28, 28, 64)   256         conv2d_2[0][0]                   
__________________________________________________________________________________________________
batch_normalization_8 (BatchNor (None, 28, 28, 64)   256         conv2d_7[0][0]                   
__________________________________________________________________________________________________
activation_2 (Activation)       (None, 28, 28, 64)   0           batch_normalization_3[0][0]      
__________________________________________________________________________________________________
activation_7 (Activation)       (None, 28, 28, 64)   0           batch_normalization_8[0][0]      
__________________________________________________________________________________________________
conv2d_3 (Conv2D)               (None, 14, 14, 32)   51232       activation_2[0][0]               
__________________________________________________________________________________________________
conv2d_8 (Conv2D)               (None, 14, 14, 32)   51232       activation_7[0][0]               
__________________________________________________________________________________________________
batch_normalization_4 (BatchNor (None, 14, 14, 32)   128         conv2d_3[0][0]                   
__________________________________________________________________________________________________
batch_normalization_9 (BatchNor (None, 14, 14, 32)   128         conv2d_8[0][0]                   
__________________________________________________________________________________________________
activation_3 (Activation)       (None, 14, 14, 32)   0           batch_normalization_4[0][0]      
__________________________________________________________________________________________________
activation_8 (Activation)       (None, 14, 14, 32)   0           batch_normalization_9[0][0]      
__________________________________________________________________________________________________
conv2d_4 (Conv2D)               (None, 7, 7, 32)     25632       activation_3[0][0]               
__________________________________________________________________________________________________
conv2d_9 (Conv2D)               (None, 7, 7, 32)     25632       activation_8[0][0]               
__________________________________________________________________________________________________
batch_normalization_5 (BatchNor (None, 7, 7, 32)     128         conv2d_4[0][0]                   
__________________________________________________________________________________________________
batch_normalization_10 (BatchNo (None, 7, 7, 32)     128         conv2d_9[0][0]                   
__________________________________________________________________________________________________
activation_4 (Activation)       (None, 7, 7, 32)     0           batch_normalization_5[0][0]      
__________________________________________________________________________________________________
activation_9 (Activation)       (None, 7, 7, 32)     0           batch_normalization_10[0][0]     
__________________________________________________________________________________________________
max_pooling2d (MaxPooling2D)    (None, 3, 3, 32)     0           activation_4[0][0]               
__________________________________________________________________________________________________
max_pooling2d_2 (MaxPooling2D)  (None, 3, 3, 32)     0           activation_9[0][0]               
__________________________________________________________________________________________________
max_pooling2d_1 (MaxPooling2D)  (None, 1, 1, 32)     0           max_pooling2d[0][0]              
__________________________________________________________________________________________________
max_pooling2d_3 (MaxPooling2D)  (None, 1, 1, 32)     0           max_pooling2d_2[0][0]            
__________________________________________________________________________________________________
average (Average)               (None, 1, 1, 32)     0           max_pooling2d_1[0][0]            
                                                                 max_pooling2d_3[0][0]            
__________________________________________________________________________________________________
flatten (Flatten)               (None, 32)           0           average[0][0]                    
__________________________________________________________________________________________________
dropout (Dropout)               (None, 32)           0           flatten[0][0]                    
__________________________________________________________________________________________________
dense (Dense)                   (None, 512)          16896       dropout[0][0]                    
__________________________________________________________________________________________________
dense_1 (Dense)                 (None, 256)          131328      dense[0][0]                      
__________________________________________________________________________________________________
dense_2 (Dense)                 (None, 128)          32896       dense_1[0][0]                    
__________________________________________________________________________________________________
action (Dense)                  (None, 4)            516         dense_2[0][0]                    
==================================================================================================
Total params: 959,240
Trainable params: 957,958
Non-trainable params: 1,282
__________________________________________________________________________________________________
(908, 224, 224, 1)
(908, 224, 224, 1)
(908, 4)
Epoch 1/30
  1/454 [...............
…
